oop/model28.pt (torch_old, 31932 bytes, 2 tensors)

fc.weight f4 [10, 784]
00000000: 257f 9fbc 00e1 72bc 200d 663b 00fd 36bc
00000010: 38a4 edbc ac69 f7bc 8e61 69bc 52f4 52bc
00000020: 382e 8b3b f5be 093d 4025 853c a03a 563c
00000030: ec20 ecbc 7bff 72bd 2daf a5bd f53c 39bc
00000040: 2cd8 b6bc 400c 5e3a 80e3 a33b f5ee efbc
00000050: 3c2f 7d3c 58b8 05bd 547f 96bb 228b aa3c
00000060: 4a86 84bc e6a2 fd3c 883a aebb b090 4ebb
00000070: d123 f1bc 4003 623a 4059 173a b000 0e3b
00000080: 5e1b d63c 8997 a73c de61 f1bc 868f 95bd
00000090: 2348 0abe a8b9 5bbe 5377 2cbe 8c0e 843d
000000a0: c8cb c53d a935 443d 8565 83be deb1 643d
000000b0: b942 a23d 6424 853d f3d4 6cbe 6db9 50be
000000c0: ae9a 46be 68f7 17be 273c 4fbd 411d 13bd
000000d0: 0014 eebb 5ec3 0fbd 9c6f d4bb 8073 a93c
000000e0: 201c c8ba ae58 9abc 719a 36bd f38f 933d
000000f0: 4344 d43d 9588 fabd 6e46 21be 42b3 cfbd
00000100: 358f 67be cf3a aebe f645 fbbe afc8 81be
00000110: ad9a 87be 5edf b8be d0c1 f1be 8a2d 1bbf
00000120: 28c0 dabe 780a 17bf 7c79 1fbf 541a 09bf
00000130: b5ad 0ebf 0e15 d4be 3f68 c3be 96ec 88be
00000140: 31af 52be a1e7 94bd de81 85bc e016 d33c
00000150: 88ff ef3b d01a 14bb dbe1 8dbb 0f16 883d
00000160: cc6c e4bd fee9 e9bd b879 4ebe 406c 7dbe
00000170: f8ba ccbd d70e 6dbe c1ea 14be 8eda 8ebd
00000180: 460b f7bd 17f7 76bd 0bf0 a0bd 494b e1bd
00000190: 3079 b6bd 4b97 cbbd 45d4 97be 92af 8fbe
000001a0: 1c4f 85be 3641 b3be e564 a4be 1d56 60be
000001b0: a4ff 25be 955d c9bd 5cd8 bebd bea1 f1bc
000001c0: 1e52 d2bc 64e6 aebc 5650 abbd 3e8d 44bd
000001d0: c11a 64be a602 92be eeae 80be b7cf 15be
000001e0: 5d98 9cbd 0a1d 2bba 881e debd 67df cfbc
000001f0: 9eab 96bd c0c3 2bbd e634 19bd 9f39 fe3b
00000200: 4b17 e0bc 0589 533c 33cc 8fbd 7989 e1bd
00000210: 736f 9dbd 93fa 1ebe 85b9 aabd ff23 30be
00000220: e190 94be f3c8 55be c943 56be 6f76 b2bd
00000230: 65b5 e1bc 1759 023d c15b 08be ef75 afbd
00000240: 198e 91be aad7 c9be 92f8 14be d936 b0bd
00000250: 1dd4 59bd 7a77 82bd 4a84 24bd 5d20 87bc
00000260: a32e aebc 3c91 af3d 3a47 f03d c193 043e
00000270: da6c 893d e682 023e c7ec 1e3e 65eb 013d
00000280: cb87 533b 6194 d33c 06b9 a5bc 4730 71be
00000290: 2584 9dbe 3d20 06bf ac8f d1be cbd2 02be
000002a0: 4c59 0ebd ac92 7dbd d4df 0abe 3bac 89be
000002b0: 7baa a4be 439f eabd ae9c 82bd 9b9e 83bd
000002c0: 90d8 dcbd 12ac 22be c346 98bc 7988 49bd
000002d0: 0e34 233b c1b4 ed3d 959b e63d 07e6 713d
000002e0: 1f5d 1c3e 761d 273e 9b4b 373e 3d9a a63d
000002f0: 6492 1c3d 6f02 dc3d 9bba 163e 3fb9 4ebd
00000300: 6885 e8be 7534 3bbf 7f16 dfbe b79a 35be
00000310: a6f2 a4ba 8594 2fbe e375 19be 3561 72be
00000320: 92a6 d1be ecb9 81bd 0ed0 66bd 5155 b9bd
00000330: fe35 2ebe 0fa8 4dbd 3c46 04bd 0310 a53c
00000340: ae80 203d 6bf4 bc3d 9c24 023d 1099 d93d
00000350: a82b 283e a5f9 473e f15a 373e 9167 243e
00000360: 7a9e fd3c 115c 6e3d 2eb4 e93d 3708 993d
00000370: 4fcc 5fbe 98db 31bf ea17 14bf d161 22be
00000380: 74af e23d 0984 2bbe 3795 00bd c134 86bd
00000390: f8c6 ccbe 50e0 c5bd af6c 94bd 3bee ddbd
000003a0: 214c eebd 7745 1bbb 1fae d53c fe7d 953c
000003b0: 3b67 f73c 5a30 1f3d 2a09 9a3d ea50 163e
000003c0: 1409 803e 2576 6f3e 8a80 753e 7424 d33d
000003d0: 27e1 ae3d 23cf 3c3d 74a5 8b3d 136f 4c3e
000003e0: d3fa d7bd 31bb 42bf fa32 24bf 395c 83be
000003f0: 3cec 91bd e1d2 03be f369 e93c 6c9c c5bc
-0.019469807 -0.014824152 0.0035103038 -0.011168718 -0.02900897 -0.030201755 -0.01424445 -0.012875633
0.004247453 0.033629376 0.016253114 0.013075501 -0.028824292 -0.059325676 -0.08090053 -0.011306037
-0.022319876 0.00084704533 0.0050014853 -0.029288748 0.015453156 -0.032646507 -0.0045928154 0.020818297
-0.016177315 0.030961465 -0.005317036 -0.0031519346 -0.029436024 0.00086217 0.0005773492 0.002166789
0.026136097 0.020458 -0.029465612 -0.073027655 -0.1350408 -0.21457541 -0.16842394 0.06448087
0.09658009 0.047902737 -0.2566339 0.05583369 0.079228826 0.065010816 -0.23128109 -0.20383234
-0.19394943 -0.14840472 -0.050594475 -0.03591657 -0.007265568 -0.035098426 -0.0064830314 0.020684958
-0.0015267171 -0.018841114 -0.04458088 0.072051905 0.103645824 -0.12233082 -0.15749523 -0.101416126
-0.22613223 -0.34029242 -0.49076813 -0.25348422 -0.26485196 -0.36107916 -0.4721818 -0.6061636
-0.4272473 -0.5900035 -0.62294745 -0.535558 -0.55733806 -0.41422313 -0.3816547 -0.26743
-0.20574643 -0.07270742 -0.016297277 0.025767744 0.007324163 -0.002259899 -0.0043299026 0.06644832
-0.11153564 -0.114215836 -0.2016362 -0.24748325 -0.09996599 -0.23150192 -0.14542677 -0.0697528
-0.12062697 -0.060294237 -0.078582846 -0.11000688 -0.089098334 -0.09940966 -0.29654136 -0.28063637
-0.26036918 -0.3501069 -0.32108226 -0.2190785 -0.162108 -0.098323025 -0.09318611 -0.02949607
-0.025673922 -0.021350093 -0.08364932 -0.04798626 -0.22275831 -0.28517646 -0.2513346 -0.14630018
-0.076462485 -0.00065274595 -0.10845667 -0.025375081 -0.07356952 -0.04193473 -0.037403964 0.007758334
-0.027354857 0.012911086 -0.0702137 -0.11012549 -0.07687273 -0.15525274 -0.08336166 -0.17201231
-0.29016784 -0.20877437 -0.20924295 -0.08713996 -0.027552316 0.031823244 -0.13316251 -0.08567416
-0.28428724 -0.3942235 -0.14547947 -0.08604211 -0.053180803 -0.063704446 -0.040165223 -0.016494924
-0.021262472 0.08572623 0.117323354 0.12946989 0.06710215 0.12745246 0.15520011 0.03171863
0.0032276984 0.025827589 -0.020229828 -0.23553573 -0.3076488 -0.5239294 -0.40929925 -0.12775724
-0.03475313 -0.061907455 -0.13561946 -0.26889214 -0.32161316 -0.11456158 -0.063775405 -0.06426736
-0.107834935 -0.15885952 -0.01858843 -0.049202416 0.0024902853 0.11606742 0.11260144 0.05905726
0.15269898 0.16319832 0.17899935 0.08134887 0.038225546 0.10742652 0.14719622 -0.050469633
-0.4541428 -0.7312692 -0.4357185 -0.177348 -0.0012584522 -0.171465 -0.14986376 -0.23669894
-0.40947396 -0.0633429 -0.05635076 -0.09049476 -0.17012784 -0.0502091 -0.032293543 0.020149237
0.03918522 0.092263065 0.031773195 0.106248975 0.16422904 0.19528826 0.17905785 0.16055132
0.030959357 0.05819327 0.1141132 0.0747227 -0.21855281 -0.694757 -0.5784899 -0.15857626
0.11068621 -0.16749586 -0.031392302 -0.06553031 -0.3999555 -0.09661925 -0.07247292 -0.108364545
-0.11635614 -0.0023692527 0.026084004 0.018248554 0.030200591 0.03886447 0.07521279 0.14679304
0.25006926 0.23384912 0.23974815 0.10309687 0.08539038 0.04609598 0.06818667 0.19964246
-0.10545888 -0.7606688 -0.64140284 -0.25656298 -0.07125136 -0.12873413 0.028492903 -0.02412244

fc.bias f4 [10]
00000000: 5acf 89be a24d da3e f84f 8a3c 9572 80be
00000010: 92c7 ba3d f682 2c3f 2b71 74bd ab20 c93e
00000020: 514a 51bf 0178 1abe
-0.2691601 0.42637354 0.016883835 -0.2508742 0.09120096 0.6738733 -0.059678238 0.39282736
-0.8175402 -0.1508484
